models/recurrent_L50.pt (torch, 4360 bytes, 7 tensors)

rnn.weight_ih_l0 f4 [10, 8]
0	0x3fbf2889	1.4934245
1	0x3d29aae0	0.041422725
2	0x3d38e6f1	0.045142118
3	0x3e94aa15	0.29036012
4	0x3f628723	0.8848745
5	0xbe16df4c	-0.14733618
6	0xbe135c9d	-0.14390798
7	0xbe11d3f7	-0.14241014
8	0x4010545a	2.2551484
9	0x3e91367c	0.2836188
10	0x3e8504d1	0.25980237
11	0xbf11151d	-0.5667284
12	0xbf08cb0d	-0.5343483
13	0x3e4ef1d9	0.20209445
14	0x3e48663f	0.19570254
15	0x3e49f77c	0.19723314
16	0x40151fc3	2.3300636
17	0x3d025d97	0.031827535
18	0x3ec7fc6d	0.39059773
19	0x3e09a094	0.13440162
20	0xbf7e0fa3	-0.9924261
21	0x3ddc053a	0.107431844
22	0x3e9b0109	0.30274227
23	0x3e6ba673	0.23012714
24	0x3f228acf	0.63493055
25	0xbe07a686	-0.13247117
26	0xbdd01f15	-0.101621784
27	0xb9a1e118	-0.0003087602
28	0xc0129ecb	-2.290942
29	0xbd14337d	-0.036181916
30	0xba00c802	-0.0004912616
31	0x3c84e26d	0.01622125
32	0xbdcbb237	-0.09946101
33	0xbe261c34	-0.16221696
34	0xbe26f394	-0.16303855
35	0xbf3e1bcd	-0.7426117
36	0xbe676b05	-0.22599418
37	0xbe1a070d	-0.15041752
38	0xbe172e80	-0.14763832
39	0xbe13d753	-0.14437608
40	0x3f35b2c6	0.7097591
41	0xbb3835ee	-0.0028108316
42	0xbb511d06	-0.0031908168
43	0xbe074312	-0.13209179
44	0x3f0c90e4	0.54908586
45	0xbe47acf5	-0.19499572
46	0xbe4388ff	-0.19095229
47	0xbe411469	-0.18855442
48	0xbf143400	-0.57891846
49	0xbe7acd5b	-0.244924
50	0xbe64d0d4	-0.22345287
51	0xbe96cfcc	-0.2945541
52	0x3fa8ac69	1.3177615
53	0xbe14643f	-0.14491366
54	0xbe0aed00	-0.13566971
55	0xbe07598a	-0.1321775
56	0x3ebdc099	0.37061003
57	0xba86e946	-0.001029291
58	0xbbc7289b	-0.0060778386
59	0xbeedce93	-0.46446666
60	0x3e9eebc6	0.31039256
61	0x3d0b8edd	0.034071792
62	0x3d0781f7	0.03308293
63	0x3d1d0eee	0.038344316
64	0xbfc76509	-1.5577708
65	0xbd8aa024	-0.06768826
66	0xbde53d57	-0.1119334
67	0xbea19bab	-0.31564078
68	0x4044a3a4	3.0724878
69	0xbe030b56	-0.12797293
70	0xbde7cc2a	-0.11318238
71	0xbd783c61	-0.060604457
72	0x40a7c429	5.2426953
73	0x3f32b568	0.69808054
74	0x3e9fc557	0.31205246
75	0x3c993276	0.01870082
76	0xbfc8a3ec	-1.5675025
77	0x3f074cdb	0.5285165
78	0x3e199468	0.14998019
79	0x3d45469f	0.048163053

rnn.weight_hh_l0 f4 [10, 10]
0	0x3f4bc504	0.79597497
1	0xbc9c8ec4	-0.019111045
2	0xbec49e82	-0.38402182
3	0xbeaae059	-0.3337429
4	0xbe276c96	-0.16350016
5	0x3ec4cc40	0.3843708
6	0x3edda799	0.4329193
7	0xbece72ca	-0.40321952
8	0xbe856bfb	-0.26058945
9	0x3bdaa2b5	0.006672228
10	0x3f1a2a0e	0.6022042
11	0x3ef85da8	0.48508954
12	0xbea5f9c3	-0.32417116
13	0xbecdcabe	-0.40193743
14	0x3e4bf86e	0.19918987
15	0xbf2fd8c3	-0.6869013
16	0x3ee929a9	0.45539597
17	0x3eca57bc	0.3952006
18	0x3e0a454a	0.13502994
19	0xbf13dd04	-0.5775912
20	0x3de002e6	0.10938053
21	0x3f1e8c9b	0.61933297
22	0xbe8548c6	-0.26032084
23	0x3dcb3849	0.09922845
24	0x3eff22eb	0.49831328
25	0xbd3e41a9	-0.046449337
26	0x3f3ab1c7	0.72927517
27	0xbd85dc3a	-0.065361455
28	0x3f8320a4	1.0244336
29	0xbd7508ed	-0.059822965
30	0x3e799e43	0.24376778
31	0xbe0e0bd0	-0.13871694
32	0xbe862fa5	-0.26208225
33	0xbe8de54f	-0.2771401
34	0x3e4bf317	0.1991695
35	0xbf10014d	-0.56251985
36	0xbe1f844c	-0.15577811
37	0x3f11d39a	0.56963503
38	0x3d18b5ef	0.03728288
39	0xbfef9c55	-1.8719584
40	0x3e9f4a27	0.3111126
41	0xbf15bf58	-0.5849509
42	0xbee2b4ad	-0.4427847
43	0xbf1e7688	-0.61899614
44	0xbcdb1235	-0.02674208
45	0x3ef8f3e7	0.48623583
46	0xbeadb0c1	-0.33923915
47	0xbf14f55a	-0.58186877
48	0x3c728b8a	0.0148037765
49	0xbf0e7794	-0.5565121
50	0x3e94c58b	0.29056963
51	0xbdd61f67	-0.10455208
52	0x3ceaadde	0.02864736
53	0xbe6dc201	-0.23218538
54	0x3f133f31	0.575183
55	0x3f09994f	0.53749555
56	0x3d81d40c	0.06339273
57	0xbec5a05e	-0.38598913
58	0x3f4a38b6	0.78992784
59	0x3e34f952	0.17673233
60	0x3d975af4	0.07390395
61	0x3e42973e	0.19003007
62	0x3e4bf2cb	0.19916837
63	0xbe449100	-0.19195938
64	0xbf0e90ff	-0.55689996
65	0xbf4f113b	-0.80885667
66	0x3e921b6b	0.28536543
67	0x3f3397e2	0.7015363
68	0x3ebb0342	0.36525923
69	0x3f72b694	0.9480984
70	0x3d9424e6	0.072336
71	0xbeb04e36	-0.3443467
72	0x3ed68ab8	0.4190271
73	0x3ec4bcaa	0.3842519
74	0xbf505cb2	-0.8139144
75	0xbefcf6bc	-0.49406993
76	0x3ebde85a	0.37091333
77	0x3ebd5e36	0.3698594
78	0xbe9187bb	-0.28423867
79	0x3d79e7c4	0.061012045
80	0x3e615ff2	0.22009256
81	0x3ecd7dd7	0.4013507
82	0x3f074fe2	0.52856266
83	0xbf1818d6	-0.59412897
84	0xbf3525e7	-0.7076096
85	0xbdead880	-0.11467075
86	0x3f6daf2a	0.92845404
87	0x3d416a81	0.04722071
88	0x3f0944a2	0.5362035
89	0x3f7c5ac0	0.98575974
90	0x3ecc26a3	0.39873227
91	0x3f0f58ab	0.5599467
92	0xbc8e62fb	-0.017381182
93	0xbebedb0e	-0.372765
94	0x3e26c1e3	0.162849
95	0x3e9e36c9	0.30901173
96	0x3eb687d9	0.3565052
97	0xbca4fde4	-0.020140596
98	0x3f2f6d22	0.685259
99	0xbe40387a	-0.18771544

rnn.bias_ih_l0 f4 [10]
0	0x3e9a4667	0.30131838
1	0x3ca17d65	0.019713113
2	0x3eaa4d71	0.33262208
3	0xbe837324	-0.25673783
4	0xbe3abedc	-0.1823687
5	0xbe706402	-0.2347565
6	0x3e1059e9	0.14096798
7	0xbda581e5	-0.08081416
8	0xbdbbce75	-0.09170238
9	0x3ed5ab78	0.41732383

rnn.bias_hh_l0 f4 [10]
0	0x393974ad	0.0001768644
1	0x3ec4d27f	0.38441846
2	0x3f07e554	0.530843
3	0xbe8c56ec	-0.27410066
4	0xbe26f96c	-0.16306084
5	0xbe73beb3	-0.23803215
6	0xbe14820d	-0.14502735
7	0xbe9e24ea	-0.30887538
8	0xbe56069a	-0.20900956
9	0x3ea94cfd	0.3306655

post_rnn.0.weight f4 [10, 10]
0	0xbeb3b547	-0.3509924
1	0xbdacd568	-0.084391415
2	0x3dcf1490	0.10111344
3	0xbde55f7c	-0.11199853
4	0xbd0946be	-0.03351473
5	0xbe648fec	-0.22320527
6	0xbe421471	-0.1895311
7	0x3e3173d0	0.17329335
8	0x3d84c098	0.06482047
9	0xbe24e1fb	-0.1610183
10	0xbc7ebf71	-0.015548573
11	0x3e676900	0.22598648
12	0x3f2605a3	0.6485235
13	0xbf13cc73	-0.5773384
14	0xbf02fc75	-0.5116647
15	0xbe784ea6	-0.24248752
16	0x3f6fb92b	0.9364192
17	0xbf3bad1e	-0.7331103
18	0x3f24f428	0.6443505
19	0x3f7ef909	0.9959875
20	0x4034b612	2.8236127
21	0x4086f552	4.2174463
22	0x406c905b	3.6963108
23	0x40954856	4.66508
24	0x40b21c91	5.565987
25	0x403d2bab	2.9557903
26	0xc0a0d9cf	-5.026588
27	0xc0989283	-4.7678847
28	0xc09c599e	-4.8859396
29	0x404b60ed	3.1777909
30	0x404eecf0	3.2332115
31	0x403b3e9f	2.925697
32	0x4066d4fa	3.606749
33	0x405d1678	3.4544964
34	0x40979ac9	4.7376447
35	0x4067800f	3.617191
36	0xc09b656e	-4.8561316
37	0xc02849a6	-2.6294951
38	0xc087210e	-4.222785
39	0x405874aa	3.3821206
40	0xbea50b4e	-0.32235187
41	0x3c01e448	0.007927962
42	0xbe15583f	-0.14584444
43	0xbe176710	-0.14785409
44	0x3e9e89ee	0.30964607
45	0xbd09a9e0	-0.03360927
46	0xbd872ca5	-0.06600312
47	0x3e35aae9	0.17740978
48	0xbcd5f52b	-0.026117882
49	0x3db3ea74	0.08784953
50	0xbdfc1360	-0.12308383
51	0x3e695a3b	0.22788326
52	0xbcc58e3a	-0.02411567
53	0x3e785dd0	0.24254537
54	0x3d44aa9f	0.04801428
55	0xbd1b9613	-0.03798492
56	0xbe74ea5c	-0.23917526
57	0x3c5e8b98	0.013583086
58	0x3e455ef1	0.19274499
59	0xbe34efbb	-0.17669575
60	0xbe7cade2	-0.24675706
61	0xbe5eff7f	-0.21777152
62	0x3f11125b	0.56668633
63	0xbf25e028	-0.6479516
64	0xbddd48de	-0.10804914
65	0x3df1a445	0.1179891
66	0x3f4a165f	0.78940386
67	0xbf19efec	-0.60131717
68	0x3f1cafc8	0.6120572
69	0x3f07e9d8	0.5309119
70	0x3d679451	0.05653793
71	0xbdc7dcd1	-0.09758914
72	0xbe412a9b	-0.18863909
73	0xbca71e1c	-0.0204001
74	0x3e245046	0.16046247
75	0xbb73a9a2	-0.0037179966
76	0xbe923986	-0.28559512
77	0x3e13ceec	0.14434403
78	0xbcff1b76	-0.031141024
79	0x3e158b3a	0.14603892
80	0xbedcae6b	-0.4310182
81	0xbe4264bc	-0.1898374
82	0x3ec1ac01	0.3782654
83	0xbe4fc930	-0.2029159
84	0xbebe4519	-0.37162092
85	0xbea5ad01	-0.32358554
86	0x3fa39c4d	1.2782074
87	0xbe9b7ea9	-0.30370072
88	0x3f4b1f19	0.79344326
89	0x3ed42b7f	0.41439435
90	0xbe7c9bb3	-0.2466877
91	0xbdaf9021	-0.08572412
92	0x3df0f951	0.11766303
93	0x3d7aaeb6	0.061201774
94	0xba46e333	-0.0007586956
95	0xbdf240b6	-0.11828749
96	0xbe736ea9	-0.23772682
97	0x3dbbd7ca	0.09172018
98	0xbcf82df4	-0.03029535
99	0xbc02a6f0	-0.007974371

post_rnn.0.bias f4 [10]
0	0xbd55c13a	-0.05218623
1	0x3e01cd84	0.12676054
2	0x4033dac8	2.8102283
3	0x4042a4ba	3.041304
4	0x3bac8e7f	0.0052660103
5	0xbe3262d4	-0.17420512
6	0x3d3c1e81	0.04592753
7	0xbebd0944	-0.36921132
8	0x3d73ebcb	0.05955104
9	0xbde26cbf	-0.11055898

post_rnn.2.weight f4 [1, 10]
0	0xbe51a004	-0.20471197
1	0xbf6fe316	-0.9370588
2	0x41a1dff3	20.23435
3	0x419c8d45	19.56898
4	0x3e101493	0.14070348
5	0xbddee896	-0.10884206
6	0xbf6f65b9	-0.9351459
7	0xbd9743be	-0.07385968
8	0xbf81c37f	-1.0137786
9	0x3e59c384	0.2126599
