models/recurrent_L20.pt (torch, 4360 bytes, 7 tensors)

rnn.weight_ih_l0 f4 [10, 8]
0	0xbf592d89	-0.84835106
1	0xbe69ab8a	-0.22819343
2	0xbd886055	-0.06658999
3	0x3e1c622c	0.15271825
4	0x3f3f0a18	0.74624777
5	0xbdcde3bc	-0.100532025
6	0xbe075400	-0.13215637
7	0xbdf2a482	-0.118477836
8	0x3f37ec6a	0.71845114
9	0xbdb7a087	-0.08966165
10	0xbca92a1b	-0.02064996
11	0xbd3c9c25	-0.04604735
12	0x3e2c5ce2	0.16832307
13	0x3d84bd4b	0.06481417
14	0x3d84d7f1	0.064865
15	0x3da5097c	0.080584496
16	0x3e026db3	0.1273716
17	0x3e961607	0.2931368
18	0xbcee44a3	-0.029085463
19	0x3dd976b7	0.10618346
20	0xbf833e76	-1.0253437
21	0x3d18593a	0.037194468
22	0xbe3e8600	-0.18605804
23	0xbe58addf	-0.21160077
24	0x3cba04d1	0.022707375
25	0x3d129447	0.03578594
26	0x3db4ca2a	0.08827622
27	0x3d984a40	0.07436037
28	0x3e923133	0.2855316
29	0x3d1d5bf4	0.03841777
30	0x3d78dea5	0.060759205
31	0x3dc5d92b	0.09660562
32	0xbf183a09	-0.59463555
33	0xbc400795	-0.011720558
34	0xbe463c48	-0.19358933
35	0x3df1c029	0.1180423
36	0x3f92386c	1.1423469
37	0xbe91f5d6	-0.2850787
38	0xbeb26833	-0.34845123
39	0xbe37c875	-0.17947562
40	0xbf37fc6c	-0.7186954
41	0xbe195f47	-0.14977752
42	0xbec27b29	-0.3798459
43	0x3e2c8709	0.16848387
44	0x3f36af51	0.7136126
45	0xbe7814ba	-0.24226657
46	0xbe690fb8	-0.22759902
47	0xbe8138c9	-0.25238636
48	0x3f2b177d	0.66832715
49	0xbc3606e1	-0.0111100385
50	0x3d2a80ac	0.041626617
51	0xbea4f2d4	-0.32216513
52	0x3a9a45cd	0.001177007
53	0xbe1652fb	-0.14680092
54	0xbe067eb8	-0.13134277
55	0xbe0538bd	-0.13009925
56	0x3d753721	0.05986703
57	0xbd8bfc4c	-0.06835231
58	0x3c5ec835	0.013597538
59	0x3b9fe718	0.0048798434
60	0x3f229bb7	0.6351885
61	0xbd81bb31	-0.06334532
62	0xbd513ff9	-0.0510864
63	0xbcef8a40	-0.029240727
64	0x3e8093d0	0.25112772
65	0x3d6b8812	0.057502814
66	0x3d52dd2f	0.05148047
67	0xbefeba41	-0.49751475
68	0xbebf4b25	-0.37362018
69	0x3d439b3b	0.04775546
70	0x3d1e0916	0.038582884
71	0x3d5ae1a7	0.053437855
72	0xbd87a144	-0.06622556
73	0x3e01cbf9	0.12675466
74	0x3d2752b7	0.040850367
75	0x3e274b0c	0.16337222
76	0x3e0a1832	0.13485792
77	0x3d2ea57f	0.042638298
78	0xb946a896	-0.00018945555
79	0xbc4a084e	-0.012331082

rnn.weight_hh_l0 f4 [10, 10]
0	0xbf4023a3	-0.7505438
1	0x3de305db	0.11085101
2	0xbca29352	-0.019845638
3	0xbe8f5df1	-0.2800136
4	0xbd5cc90a	-0.053902663
5	0xbf3966fa	-0.72422755
6	0xbedf3dfa	-0.43601972
7	0xbeea0caf	-0.45712802
8	0xbe175374	-0.14777929
9	0x3e36b326	0.17841777
10	0xbbb696d7	-0.0055721807
11	0x3e7a7ad5	0.24460919
12	0xbddf5acb	-0.10905989
13	0x3e9b704f	0.30359122
14	0xbf20319d	-0.62575704
15	0x3e212fbc	0.15740865
16	0xbdb3cfbc	-0.087798566
17	0xbe0cbbb8	-0.13743484
18	0xbe68ad0f	-0.22722267
19	0xbefa4e12	-0.48887688
20	0xbec3c6a6	-0.38237494
21	0x3e54a974	0.20767766
22	0xbcea6239	-0.02861129
23	0xbf4d2e31	-0.8014861
24	0xbd8ae5bb	-0.06782099
25	0xbe6e4a71	-0.23270585
26	0x3ea8db0b	0.32979617
27	0x3ed51e92	0.41624886
28	0x3f0ca2b2	0.54935753
29	0xbdc99f23	-0.09844806
30	0xbeee6653	-0.46562442
31	0x3f3d8dab	0.74044293
32	0xbdffbc99	-0.12487144
33	0x3ee425e1	0.4456015
34	0x3f5c995a	0.86171496
35	0xbf3d64ec	-0.7398212
36	0xbe4c7ac7	-0.19968711
37	0xbf1d807b	-0.6152417
38	0x3e05db51	0.13071944
39	0x3ed6ae84	0.4193002
40	0xbe91ded8	-0.2849033
41	0xbf31743f	-0.69318
42	0xbeafee8c	-0.34361684
43	0x3f86719d	1.0503422
44	0x3e4b1fd5	0.19836362
45	0x3e93a981	0.2884026
46	0xbf2c8e00	-0.67404175
47	0xbea7b2a7	-0.32753488
48	0xbe5c5870	-0.21518111
49	0xbf0294ed	-0.5100849
50	0xbf1bbf8c	-0.6083915
51	0x3e0e0c28	0.13871825
52	0xbd869cf6	-0.06572907
53	0xbe9f0c8f	-0.3106427
54	0x3cc8e221	0.02452189
55	0xbf21a08e	-0.6313561
56	0xbee2079a	-0.44146425
57	0xbef71627	-0.48259088
58	0xbe082a12	-0.13297299
59	0x3e396f77	0.18108927
60	0x3dc88c24	0.09792355
61	0xbea2222b	-0.31666693
62	0x3f3315e4	0.6995528
63	0x3bc2e70f	0.0059479545
64	0xbda12551	-0.07868446
65	0x3e92e4f3	0.286903
66	0xbeaf4324	-0.34230912
67	0x3f157946	0.58388174
68	0xbeface9a	-0.4898575
69	0xbedef31e	-0.4354486
70	0xbf125162	-0.5715543
71	0xbefaee8a	-0.49010116
72	0xbe423dff	-0.18968962
73	0x3d353028	0.04423538
74	0xbebd7a21	-0.3700724
75	0xbf06c3d2	-0.5264255
76	0xbd3e20e3	-0.046418082
77	0xbe4550ba	-0.19269076
78	0x3e39b670	0.18136
79	0x3dfc7eb2	0.12328853
80	0x3ea8c9d3	0.3296648
81	0xbf1a1f68	-0.6020417
82	0x3f2f4f7c	0.6848066
83	0xbda4fd0d	-0.08056078
84	0x3ddbf41f	0.10739922
85	0x3e507d18	0.2036022
86	0xbe92b5c5	-0.28654304
87	0x3f0f5f53	0.5600483
88	0xbf1f3b55	-0.6219991
89	0xbe29c013	-0.16577177
90	0xbd2baf2d	-0.041915108
91	0xbf723c05	-0.9462283
92	0xbe26fad4	-0.16306621
93	0x3f18e588	0.59725237
94	0xbdb85c7d	-0.09002016
95	0xbf1340e4	-0.5752089
96	0xbf41a3de	-0.75640666
97	0xbdaa7a36	-0.08324091
98	0xbf0e21d2	-0.55520356
99	0xbe1f2000	-0.15539551

rnn.bias_ih_l0 f4 [10]
0	0xbde36006	-0.111022994
1	0x3d430eec	0.047621652
2	0x3e5c3d9c	0.21507877
3	0xbf18563a	-0.5950657
4	0xbedc313d	-0.43006316
5	0x3e24c692	0.16091374
6	0xbd4789d6	-0.048715435
7	0x3ee8b9c7	0.45454237
8	0xbdc5a809	-0.09651191
9	0x3e4e27f2	0.20132425

rnn.bias_hh_l0 f4 [10]
0	0xbdf56f6b	-0.11984142
1	0xbe1ba92c	-0.15201253
2	0x3e414c32	0.18876722
3	0xbe0939ab	-0.13400905
4	0xbeda6e96	-0.42662495
5	0xbdbcdd02	-0.092218414
6	0x3eb06a21	0.3445597
7	0x3e5ff8b8	0.21872222
8	0x3e72ffaa	0.2373034
9	0x3d98ee10	0.07467282

post_rnn.0.weight f4 [10, 10]
0	0xc0275e3e	-2.615127
1	0x40345f53	2.8183181
2	0x404a496c	3.1607313
3	0xc036d5fe	-2.856811
4	0xc0727853	-3.788594
5	0xc046deb6	-3.1073432
6	0x4009f3b0	2.1554985
7	0xc03e7733	-2.9760253
8	0x403a6b7e	2.9128108
9	0xc03c90fd	-2.9463494
10	0x3eb53ef9	0.35399607
11	0x3da84ffb	0.0821838
12	0x3ea33318	0.3187492
13	0xbe8f2b1f	-0.27962586
14	0xbe74f550	-0.23921704
15	0x3f04a47e	0.51813495
16	0x3e0d5d70	0.13805175
17	0xbd824dd0	-0.06362498
18	0xbedd7dd0	-0.4326005
19	0xbea23a9d	-0.31685343
20	0x3f0150d4	0.5051396
21	0xbf3a4edb	-0.72776574
22	0x3ee0db78	0.4391744
23	0x3e222a49	0.15836443
24	0xbef35814	-0.47528136
25	0x3e83f118	0.25769877
26	0xbe25d6a9	-0.16195168
27	0xbde2a2df	-0.110662214
28	0xbe8e1ba0	-0.2775545
29	0xbf08374f	-0.53209394
30	0xbf2861d1	-0.65774256
31	0x3f1d93ce	0.6155366
32	0xbfb8b0ce	-1.4428957
33	0xbef36074	-0.47534525
34	0x3fb368c8	1.4016352
35	0xbefed951	-0.49775174
36	0x3f89763b	1.0739206
37	0x3f39d542	0.7259103
38	0x3f2502c9	0.64457375
39	0x3ffcd82d	1.9753472
40	0xbf0086b3	-0.50205535
41	0xbf530a94	-0.82438016
42	0xbda144ea	-0.078744724
43	0x3e7703a4	0.24122483
44	0xbea8af5a	-0.32946283
45	0xbf0c3130	-0.54762554
46	0xbf046eca	-0.5173155
47	0xbda2e037	-0.07952922
48	0xbc883e74	-0.016631342
49	0x3b1a2c7e	0.0023525055
50	0xbfc3a7cf	-1.5285586
51	0x3fe9d2a5	1.8267409
52	0x403a98de	2.9155803
53	0xbff6b09b	-1.9272646
54	0xc02a160a	-2.6575952
55	0xbfead3ff	-1.8345946
56	0x3fbc2c14	1.4700952
57	0xc0021763	-2.0326774
58	0x3faa8f36	1.3324955
59	0xc01e9324	-2.4777308
60	0xbfe152d7	-1.7603406
61	0x4003bc91	2.0583842
62	0x40396a27	2.897104
63	0xc0284d75	-2.6297276
64	0xc05c515d	-3.442466
65	0xc02153cf	-2.5207403
66	0x3ffe96a0	1.9889717
67	0xc03a47fe	-2.910644
68	0x401dbfc2	2.464829
69	0xc02587ba	-2.586409
70	0x3e0062d5	0.12537701
71	0xbe02e991	-0.12784411
72	0xbe7c0bd9	-0.24613895
73	0xbeac0a77	-0.33601734
74	0x3d10ce03	0.035352718
75	0x3eee56ce	0.46550602
76	0x3d4102a3	0.047121655
77	0x3e558f8e	0.20855543
78	0xbe2c6a6d	-0.16837473
79	0xbeba1d49	-0.36350468
80	0x3e928f40	0.28624916
81	0xbcce0151	-0.025147112
82	0xbdd2b6c1	-0.10288764
83	0x3d773297	0.06035098
84	0x3e84e41b	0.2595528
85	0x3c998214	0.018738784
86	0xbdb7b4fb	-0.08970066
87	0xbe499a18	-0.19687688
88	0xbe6c8248	-0.23096573
89	0x3e7a87bc	0.24465841
90	0xbf439044	-0.76392007
91	0xbf801855	-1.0007426
92	0x3eb7f91e	0.3593225
93	0xbe1c45fe	-0.15261075
94	0x3e8663e4	0.26248085
95	0xbeadb65c	-0.33928192
96	0xbee88a46	-0.45417994
97	0x3cbf80a7	0.023376776
98	0x3b9fdfb5	0.004878963
99	0xbe3fe677	-0.18740259

post_rnn.0.bias f4 [10]
0	0x3f6459f1	0.8919974
1	0xbd098be1	-0.033580665
2	0x3eacff6b	0.33788618
3	0x3f35157d	0.70735914
4	0x3d056a85	0.032572288
5	0x3f8c4106	1.0957344
6	0x3f63496f	0.88783926
7	0x3ee071a8	0.43836713
8	0xbcad41bd	-0.02114951
9	0xbe6db390	-0.23213029

post_rnn.2.weight f4 [1, 10]
0	0x40e74bce	7.2280035
1	0xbedaa9f8	-0.427078
2	0xbee61a08	-0.44941735
3	0xc02d0888	-2.7036457
4	0xbf59b549	-0.85042244
5	0x40c6b1ee	6.20922
6	0x40f6fe4c	7.718542
7	0xbf2b4dae	-0.66915405
8	0xbe92ea8e	-0.28694576
9	0xbf854403	-1.041138
