models/recurrent_L30.pt (torch, 4360 bytes, 7 tensors)

rnn.weight_ih_l0 f4 [10, 8]
000000 70 0e 20 bf 30 68 6d be 87 2d 38 be 26 8f d1 3e
       -0.6252203 -0.23184276 -0.17986117 0.40929526
000010 25 d0 4e 40 50 ed ec bd 22 8c 98 bd 3a 14 1e bd
       3.2314541 -0.11568701 -0.07448603 -0.03859351
000020 93 8e 42 bf 5e 74 c4 3d 9f a3 e6 3d d0 81 72 3f
       -0.759988 0.09592508 0.11261677 0.9472933
000030 17 c6 77 3f 9b c1 cf 3c 16 96 1f 3d 03 9b 64 3d
       0.96786636 0.025360873 0.038961492 0.055811893
000040 09 63 27 bc 73 ff 68 be ed 06 3c be 7f 28 58 3e
       -0.010216483 -0.22753696 -0.18362017 0.21109198
000050 6e cb 95 bf 00 96 1d be 44 ce e7 bd 3a 1d b1 bd
       -1.1702707 -0.15389252 -0.11318639 -0.08648153
000060 36 6a 85 40 03 02 24 3e a6 d2 00 3e 3c 99 46 3e
       4.169215 0.16016392 0.12580356 0.19394392
000070 74 c4 1c be ee b2 34 3e b8 f5 23 3e 93 8b 38 3e
       -0.15309316 0.17646381 0.16011703 0.18021993
000080 a3 e7 3f bf 3f b9 8d 3e d6 e3 6a 3e 7d 8a b4 bc
       -0.74962825 0.27680394 0.22938475 -0.022038693
000090 ec 63 02 3f 1d de 1f 3b e2 06 58 bc 14 74 18 3d
       0.5093372 0.0024393864 -0.013185235 0.037220076
0000a0 11 f4 8f 3e f1 1b 10 be cd 15 f6 bd 63 43 27 3e
       0.28115895 -0.14073159 -0.12015877 0.163343
0000b0 f0 ec 4b be 40 32 29 be a5 ac 16 be 8e c8 06 be
       -0.19914603 -0.16523075 -0.14714296 -0.13162443
0000c0 80 3f 0b bf c3 e6 9f bd 37 12 c4 bd c2 f5 60 3f
       -0.5439377 -0.07807686 -0.09573787 0.87874997
0000d0 54 bd 12 3f 81 64 e9 bd a8 97 01 be 05 99 0d be
       0.5732014 -0.11396123 -0.12655509 -0.13827904
0000e0 3a 69 d8 3f 32 f1 66 3d 77 39 23 3d 9b 62 d9 3e
       1.6907113 0.056382366 0.039849725 0.42458043
0000f0 3f d5 36 bf 23 91 7c 3d 4a b5 40 3d e2 23 f5 3c
       -0.7141914 0.06166185 0.04704789 0.029924337
000100 a6 7d 79 bf a4 95 9e bc 5b b7 43 3e 16 d4 4a 3e
       -0.9745735 -0.019358464 0.19112913 0.19807467
000110 79 65 6b 3f 88 db 94 ba 9c de 2d 3e fc 66 7b 3e
       0.9195171 -0.0011356929 0.1697945 0.24551004
000120 55 e7 66 be ba 9f 9f 3d c1 1e ef 3d 8d bc 94 3d
       -0.22549184 0.07794137 0.11675788 0.07262526
000130 88 1f 60 be 01 e7 31 3d 3d 6d 8b 3d 07 68 88 3d
       -0.21887028 0.043433193 0.06807945 0.06660467

rnn.weight_hh_l0 f4 [10, 10]
000000 d7 d5 ed 3d 70 03 3e bd d4 de a4 3e b4 0b c9 3e
       0.11613052 -0.046389997 0.32201254 0.3926674
000010 fb 50 7c bd 6f d0 11 bf af c8 eb be ac 15 04 3f
       -0.061600666 -0.5695867 -0.46051547 0.5159557
000020 09 0d 83 be 9c 4c 6e be 20 62 0f 3d 5b 3d 77 3f
       -0.25595883 -0.23271412 0.03500569 0.96577996
000030 ba 81 0b 3d f3 98 69 bd 9d 96 3a be 91 1c bf be
       0.034059264 -0.05703063 -0.18221517 -0.37326482
000040 e9 73 18 be 15 29 9d 3e a3 38 8b be 20 4b e0 3e
       -0.14887966 0.30695406 -0.27191648 0.43807316
000050 34 ac 29 3e f8 ea 08 bf 53 4c 3f 3f 0d 75 d7 be
       0.16569597 -0.53483534 0.74725837 -0.4208149
000060 08 a9 56 3c 4e 02 26 be f6 28 39 3e 4c 49 39 be
       0.013101824 -0.16211817 0.18082032 -0.18094367
000070 9b 03 4e be 36 d7 3c be 1f 84 00 be 2d 0d c5 3e
       -0.20118563 -0.18441471 -0.125504 0.38486615
000080 72 43 22 b8 3f 02 f4 3e a6 97 46 3d e5 f8 c0 bb
       -3.8686623e-05 0.47657964 0.048484467 -0.0058890455
000090 99 64 bb 3d 4f 14 a4 3e 36 87 cb 3e ab 77 a5 bd
       0.09150047 0.32046744 0.39751595 -0.080794655
0000a0 ce 7f 80 be d0 d1 e2 bd 5e 76 73 be 1e 0e 5c 3e
       -0.25097507 -0.11075175 -0.23775622 0.2148976
0000b0 19 ad a6 3e 25 f0 ed be 2f 93 02 bf 10 5d 95 3e
       0.32553938 -0.46472278 -0.51005834 0.29172564
0000c0 c7 d3 85 be 8e e4 1f bf 44 be 4f be e3 e6 69 be
       -0.26138136 -0.6245812 -0.20287424 -0.22841983
0000d0 c1 68 01 3e ae 7f 06 bf 62 99 b0 3d f3 47 23 3f
       0.12637617 -0.52538574 0.086230054 0.6378166
0000e0 74 57 e0 bc 07 4f 88 be ab fd 4d bc 90 e8 1f 3e
       -0.02738545 -0.26622793 -0.012572686 0.1561606
0000f0 1b 74 e4 3e 9f 25 bb be 6a 85 e3 bc 82 14 b3 be
       0.4461983 -0.3655214 -0.027773578 -0.34976584
000100 dc 20 0b be e9 71 c9 3e a4 26 2d 3f 5b cd 9b 3e
       -0.13586754 0.3934472 0.67637086 0.3043011
000110 d0 3b 0b be 5f 21 e8 3d ec 4d cd 3e f9 cf 96 3e
       -0.13597035 0.1133449 0.40098512 0.29455546
000120 36 1d c2 3e a5 ad 71 3d 66 66 98 3d 44 cb 92 bd
       0.3791291 0.05900349 0.07441406 -0.07167676
000130 4c cf 08 3f d0 c9 0c 3f 87 fd 9b be 42 fd 04 3e
       0.5344131 0.5499544 -0.30466864 0.12987235
000140 be a1 d7 be bd 31 a6 3e 0c 9e 36 bf af 0a 95 3e
       -0.42115587 0.32459822 -0.7133491 0.29109713
000150 a3 4b c7 bd 28 99 32 be fd a9 00 bf e6 8e 5b 3e
       -0.097312234 -0.17441237 -0.5025938 0.2144123
000160 69 ad 66 3e e9 4c 8c 3e 10 9c 3c bf 6d da ea 3e
       0.22527088 0.27402428 -0.7367563 0.4586977
000170 e9 99 1c bd 29 3b ce 3e 9e b6 54 3e 6d e2 78 be
       -0.038232718 0.4027951 0.20772788 -0.24305125
000180 86 ab b3 be b0 ee 12 3e 80 d7 0a bf cd 92 0e 3f
       -0.350918 0.14348865 -0.54235077 0.5569275

rnn.bias_ih_l0 f4 [10]
000000 b5 9f 47 3e db 62 52 bd 57 b0 34 3d 78 c5 f4 3c
       0.19494517 -0.051363807 0.044113483 0.029879317
000010 94 d9 c8 bc dd a1 e6 3d fc ad ea bd 26 da 34 be
       -0.024517812 0.11261342 -0.11458966 -0.17661342
000020 11 89 6e 3d 08 79 8c be
       0.058236185 -0.2743609

rnn.bias_hh_l0 f4 [10]
000000 9b 80 bb 3e ba ad 32 3e ca 5d 8d be 74 64 fd 3d
       0.36621556 0.17449084 -0.27610618 0.123726755
000010 d3 07 0e be 5b 17 49 3e db 27 15 be 4c 99 60 be
       -0.13870172 0.19637816 -0.14565985 -0.21933478
000020 2d 55 d0 3d 81 53 0d 3e
       0.10172496 0.13801385

post_rnn.0.weight f4 [10, 10]
000000 00 2c 6a c0 d2 3d 5b c0 8f d5 1d 40 26 37 e5 3f
       -3.6589355 -3.4256482 2.4661596 1.7907455
000010 b7 b9 1a c0 ab 4d 49 40 45 00 1b 40 7f 12 d2 3f
       -2.4175851 3.1453655 2.4218915 1.6411895
000020 a3 b0 1f c0 c1 e2 5a c0 a7 5d 4f c0 56 a1 64 c0
       -2.495156 -3.42009 -3.240091 -3.5723472
000030 ad 9b 1a 40 85 fa c3 3f ea 55 1f c0 60 af 2a 40
       2.4157517 1.5310827 -2.4896188 2.666954
000040 2e 11 f4 3f c1 45 f4 3f 61 05 12 c0 95 21 6d c0
       1.9067743 1.9083787 -2.2815783 -3.7051747
000050 e9 f8 62 c0 b0 53 65 c0 c6 bb 16 40 5c 8b ca 3f
       -3.5464423 -3.5832329 2.3552108 1.5823779
000060 38 e4 22 c0 50 65 26 40 96 96 ff 3f 73 b2 0b 40
       -2.5451794 2.5999336 1.996783 2.1827667
000070 3a 9c 38 c0 76 00 78 c0 4e b1 56 c0 f7 56 4e c0
       -2.8845353 -3.8750281 -3.3545718 -3.224058
000080 d0 7e 1a 40 4e 06 d2 3f e4 aa 40 c0 5f b2 2e 40
       2.41399 1.6408174 -3.0104303 2.729637
000090 9b a7 20 40 9f db 0c 40 df ae 4c c0 33 a4 7f c0
       2.5102298 2.2009046 -3.1981733 -3.994397
0000a0 5f f3 72 3e 4e 78 dd 3d be 01 55 bd d1 a2 b8 be
       0.23725651 0.10813962 -0.052003615 -0.3606172
0000b0 13 fc c3 3d d0 9a 23 bf c0 5c 65 3d 61 0d dc 3e
       0.09569564 -0.639081 0.055996656 0.42978957
0000c0 bd 02 60 3d 1b c7 fe 3e 9e 5d 26 bd f5 ae 97 3e
       0.05469011 0.4976128 -0.040616624 0.2962567
0000d0 03 88 08 3e 84 d0 88 3d 72 33 17 3e 15 e7 0d 3e
       0.13333134 0.06680396 0.14765719 0.13857682
0000e0 ac c0 39 3d 2a 5b 16 be 0b 82 69 be 1c 8f 65 3e
       0.04534976 -0.14683214 -0.22803514 0.22417873
0000f0 f4 60 18 3f 7f f3 e5 3d c0 cc 4a 3e f6 52 b9 bd
       0.5952294 0.11228084 0.19804668 -0.09049027
000100 48 fe 5b bd 66 f1 38 be 6e 77 47 3c ad 59 3b 3c
       -0.0537093 -0.18060836 0.01217447 0.011434955
000110 f1 e9 81 3d dc 4d c7 bd 86 ed c4 3e 59 5f 11 3e
       0.06343449 -0.09731647 0.38462466 0.14196528
000120 6b 91 b6 3e 84 0b a5 3d b1 b9 9c 3e e8 ad 84 bd
       0.3565782 0.08058837 0.3061042 -0.064784825
000130 dc 53 30 be 8e 65 9b be d2 25 31 3e 6c 69 fd be
       -0.1721949 -0.30350918 0.17299584 -0.49494493
000140 36 22 22 3e 27 7f c4 3e 4a 67 38 be 18 d3 b4 bd
       0.15833363 0.3837826 -0.18008152 -0.088293254
000150 39 77 f0 3e b5 5c 8e be aa ed 89 3e e6 6b b6 3e
       0.4696596 -0.27805105 0.26939136 0.35629195
000160 51 0f 47 3e c8 75 12 3f eb 90 5f 3e b6 ed 0c 3d
       0.19439436 0.5721097 0.21832626 0.034406386
000170 53 af b5 bd 10 87 b4 be b7 74 9e 3e a9 8c 77 be
       -0.08871331 -0.35259295 0.3094842 -0.24174751
000180 b5 64 ba bd 0a f5 87 be 2d 10 3e 3e af 27 3b 3e
       -0.091012396 -0.26554137 0.18560858 0.18276857

post_rnn.0.bias f4 [10]
000000 98 29 03 40 77 13 ab 3f f5 d4 0a 40 5b 49 02 40
       2.0494137 1.3365315 2.1692479 2.0357273
000010 e0 c3 81 be 4b 08 97 be c8 11 08 3e 7a 69 2f bd
       -0.25344753 -0.29498515 0.13288033 -0.0428252
000020 0d 59 19 be 9e da 15 be
       -0.14975376 -0.14634177

post_rnn.2.weight f4 [1, 10]
000000 39 08 35 41 96 6c 33 41 99 83 31 41 4e 99 30 41
       11.3145075 11.21401 11.094628 11.037428
000010 bb 32 47 bf bb 81 23 bc 78 cf ad be 67 e1 b1 be
       -0.77811784 -0.009979661 -0.3394735 -0.3474228
000020 a9 90 95 be 59 c8 4f 3e
       -0.2921193 0.2029127
